…
I0615 17:30:36.326185  3914 net.cpp:294] The NetState phase (0) differed from the phase (1) specified by a rule in layer accuracy
I0615 17:30:36.326489  3914 net.cpp:51] Initializing net from parameters: 
name: "CaffeNet"
state {
  phase: TRAIN
  level: 0
  stage: ""
}
layer {
  name: "data"
  type: "Data"
  top: "data"
  top: "label"
  include {
    phase: TRAIN
  }
  transform_param {
    mirror: true
    crop_size: 227
    mean_file: "/home/jondan/Documents/Ohjelmat/haalarimerkkiGo/mean.binaryproto"
  }
  data_param {
    source: "/home/jondan/Documents/Ohjelmat/haalarimerkkiGo/training_lmdb"
    batch_size: 64
    backend: LMDB
  }
}
layer {
  name: "conv1"
  type: "Convolution"
  bottom: "data"
  top: "conv1"
  param {
    lr_mult: 1
    decay_mult: 1
  }
  param {
    lr_mult: 2
    decay_mult: 0
  }
  convolution_param {
    num_output: 96
    kernel_size: 11
    stride: 4
    weight_filler {
      type: "gaussian"
      std: 0.01
    }
    bias_filler {
      type: "constant"
      value: 0
    }
  }
}
layer {
  name: "relu1"
  type: "ReLU"
  bottom: "conv1"
  top: "conv1"
}
layer {
  name: "pool1"
  type: "Pooling"
  bottom: "conv1"
  top: "pool1"
  pooling_param {
    pool: MAX
    kernel_size: 3
    stride: 2
  }
}
layer {
  name: "norm1"
  type: "LRN"
  bottom: "pool1"
  top: "norm1"
  lrn_param {
    local_size: 5
    alpha: 0.0001
    beta: 0.75
  }
}
layer {
  name: "conv2"
  type: "Convolution"
  bottom: "norm1"
  top: "conv2"
  param {
    lr_mult: 1
    decay_mult: 1
  }
  param {
    lr_mult: 2
    decay_mult: 0
  }
  convolution_param {
    num_output: 256
    pad: 2
    kernel_size: 5
    group: 2
    weight_filler {
      type: "gaussian"
      std: 0.01
    }
    bias_filler {
      type: "constant"
      value: 1
    }
  }
}
layer {
  name: "relu2"
  type: "ReLU"
  bottom: "conv2"
  top: "conv2"
}
layer {
  name: "pool2"
  type: "Pooling"
  bottom: "conv2"
  top: "pool2"
  pooling_param {
    pool: MAX
    kernel_size: 3
    stride: 2
  }
}
layer {
  name: "norm2"
  type: "LRN"
  bottom: "pool2"
  top: "norm2"
  lrn_param {
    local_size: 5
    alpha: 0.0001
    beta: 0.75
  }
}
layer {
  name: "conv3"
  type: "Convolution"
  bottom: "norm2"
  top: "conv3"
  param {
    lr_mult: 1
    decay_mult: 1
  }
  param {
    lr_mult: 2
    decay_mult: 0
  }
  convolution_param {
    num_output: 384
    pad: 1
    kernel_size: 3
    weight_filler {
      type: "gaussian"
      std: 0.01
    }
    bias_filler {
      type: "constant"
      value: 0
    }
  }
}
layer {
  name: "relu3"
  type: "ReLU"
  bottom: "conv3"
  top: "conv3"
}
layer {
  name: "conv4"
  type: "Convolution"
  bottom: "conv3"
  top: "conv4"
  param {
    lr_mult: 1
    decay_mult: 1
  }
  param {
    lr_mult: 2
    decay_mult: 0
  }
  convolution_param {
    num_output: 384
    pad: 1
    kernel_size: 3
    group: 2
    weight_filler {
      type: "gaussian"
      std: 0.01
    }
    bias_filler {
      type: "constant"
      value: 1
    }
  }
}
layer {
  name: "relu4"
  type: "ReLU"
  bottom: "conv4"
  top: "conv4"
}
layer {
  name: "conv5"
  type: "Convolution"
  bottom: "conv4"
  top: "conv5"
  param {
    lr_mult: 1
    decay_mult: 1
  }
  param {
    lr_mult: 2
    decay_mult: 0
  }
  convolution_param {
    num_output: 256
    pad: 1
    kernel_size: 3
    group: 2
    weight_filler {
      type: "gaussian"
      std: 0.01
    }
    bias_filler {
      type: "constant"
      value: 1
    }
  }
}
layer {
  name: "relu5"
  type: "ReLU"
  bottom: "conv5"
  top: "conv5"
}
layer {
  name: "pool5"
  type: "Pooling"
  bottom: "conv5"
  top: "pool5"
  pooling_param {
    pool: MAX
    kernel_size: 3
    stride: 2
  }
}
layer {
  name: "fc6"
  type: "InnerProduct"
  bottom: "pool5"
  top: "fc6"
  param {
    lr_mult: 1
    decay_mult: 1
  }
  param {
    lr_mult: 2
    decay_mult: 0
  }
  inner_product_param {
    num_output: 4096
    weight_filler {
      type: "gaussian"
      std: 0.005
    }
    bias_filler {
      type: "constant"
      value: 1
    }
  }
}
layer {
  name: "relu6"
  type: "ReLU"
  bottom: "fc6"
  top: "fc6"
}
layer {
  name: "drop6"
  type: "Dropout"
  bottom: "fc6"
  top: "fc6"
  dropout_param {
    dropout_ratio: 0.5
  }
}
layer {
  name: "fc7"
  type: "InnerProduct"
  bottom: "fc6"
  top: "fc7"
  param {
    lr_mult: 1
    decay_mult: 1
  }
  param {
    lr_mult: 2
    decay_mult: 0
  }
  inner_product_param {
    num_output: 4096
    weight_filler {
      type: "gaussian"
      std: 0.005
    }
    bias_filler {
      type: "constant"
      value: 1
    }
  }
}
layer {
  name: "relu7"
  type: "ReLU"
  bottom: "fc7"
  top: "fc7"
}
layer {
  name: "drop7"
  type: "Dropout"
  bottom: "fc7"
  top: "fc7"
  dropout_param {
    dropout_ratio: 0.5
  }
}
layer {
  name: "fc8"
  type: "InnerProduct"
  bottom: "fc7"
  top: "fc8"
  param {
    lr_mult: 1
    decay_mult: 1
  }
  param {
    lr_mult: 2
    decay_mult: 0
  }
  inner_product_param {
    num_output: 2
    weight_filler {
      type: "gaussian"
      std: 0.01
    }
    bias_filler {
      type: "constant"
      value: 0
    }
  }
}
layer {
  name: "loss"
  type: "SoftmaxWithLoss"
  bottom: "fc8"
  bottom: "label"
  top: "loss"
}
I0615 17:30:36.326663  3914 layer_factory.hpp:77] Creating layer data
I0615 17:30:36.326814  3914 db_lmdb.cpp:35] Opened lmdb /home/jondan/Documents/Ohjelmat/haalarimerkkiGo/training_lmdb
I0615 17:30:36.326855  3914 net.cpp:84] Creating Layer data
I0615 17:30:36.326875  3914 net.cpp:380] data -> data
I0615 17:30:36.326912  3914 net.cpp:380] data -> label
I0615 17:30:36.326941  3914 data_transformer.cpp:25] Loading mean file from: /home/jondan/Documents/Ohjelmat/haalarimerkkiGo/mean.binaryproto
I0615 17:30:36.330714  3914 data_layer.cpp:45] output data size: 64,3,227,227
I0615 17:30:36.482928  3914 net.cpp:122] Setting up data
I0615 17:30:36.482959  3914 net.cpp:129] Top shape: 64 3 227 227 (9893568)
I0615 17:30:36.482966  3914 net.cpp:129] Top shape: 64 (64)
I0615 17:30:36.482970  3914 net.cpp:137] Memory required for data: 39574528
I0615 17:30:36.482981  3914 layer_factory.hpp:77] Creating layer conv1
I0615 17:30:36.483003  3914 net.cpp:84] Creating Layer conv1
I0615 17:30:36.483011  3914 net.cpp:406] conv1 <- data
I0615 17:30:36.483022  3914 net.cpp:380] conv1 -> conv1
I0615 17:30:36.485277  3914 net.cpp:122] Setting up conv1
I0615 17:30:36.485317  3914 net.cpp:129] Top shape: 64 96 55 55 (18585600)
I0615 17:30:36.485325  3914 net.cpp:137] Memory required for data: 113916928
I0615 17:30:36.485357  3914 layer_factory.hpp:77] Creating layer relu1
I0615 17:30:36.485379  3914 net.cpp:84] Creating Layer relu1
I0615 17:30:36.485390  3914 net.cpp:406] relu1 <- conv1
I0615 17:30:36.485401  3914 net.cpp:367] relu1 -> conv1 (in-place)
I0615 17:30:36.485421  3914 net.cpp:122] Setting up relu1
I0615 17:30:36.485435  3914 net.cpp:129] Top shape: 64 96 55 55 (18585600)
I0615 17:30:36.485441  3914 net.cpp:137] Memory required for data: 188259328
I0615 17:30:36.485447  3914 layer_factory.hpp:77] Creating layer pool1
I0615 17:30:36.485465  3914 net.cpp:84] Creating Layer pool1
I0615 17:30:36.485473  3914 net.cpp:406] pool1 <- conv1
I0615 17:30:36.485483  3914 net.cpp:380] pool1 -> pool1
I0615 17:30:36.485563  3914 net.cpp:122] Setting up pool1
I0615 17:30:36.485581  3914 net.cpp:129] Top shape: 64 96 27 27 (4478976)
I0615 17:30:36.485587  3914 net.cpp:137] Memory required for data: 206175232
I0615 17:30:36.485616  3914 layer_factory.hpp:77] Creating layer norm1
I0615 17:30:36.485630  3914 net.cpp:84] Creating Layer norm1
I0615 17:30:36.485641  3914 net.cpp:406] norm1 <- pool1
I0615 17:30:36.485651  3914 net.cpp:380] norm1 -> norm1
I0615 17:30:36.509284  3914 net.cpp:122] Setting up norm1
I0615 17:30:36.509333  3914 net.cpp:129] Top shape: 64 96 27 27 (4478976)
I0615 17:30:36.509344  3914 net.cpp:137] Memory required for data: 224091136
I0615 17:30:36.509356  3914 layer_factory.hpp:77] Creating layer conv2
I0615 17:30:36.509385  3914 net.cpp:84] Creating Layer conv2
I0615 17:30:36.509397  3914 net.cpp:406] conv2 <- norm1
I0615 17:30:36.509413  3914 net.cpp:380] conv2 -> conv2
I0615 17:30:36.519090  3914 net.cpp:122] Setting up conv2
I0615 17:30:36.519150  3914 net.cpp:129] Top shape: 64 256 27 27 (11943936)
I0615 17:30:36.519158  3914 net.cpp:137] Memory required for data: 271866880
I0615 17:30:36.519183  3914 layer_factory.hpp:77] Creating layer relu2
I0615 17:30:36.519265  3914 net.cpp:84] Creating Layer relu2
I0615 17:30:36.519276  3914 net.cpp:406] relu2 <- conv2
I0615 17:30:36.519289  3914 net.cpp:367] relu2 -> conv2 (in-place)
I0615 17:30:36.519304  3914 net.cpp:122] Setting up relu2
I0615 17:30:36.519316  3914 net.cpp:129] Top shape: 64 256 27 27 (11943936)
I0615 17:30:36.519321  3914 net.cpp:137] Memory required for data: 319642624
I0615 17:30:36.519327  3914 layer_factory.hpp:77] Creating layer pool2
I0615 17:30:36.519338  3914 net.cpp:84] Creating Layer pool2
I0615 17:30:36.519349  3914 net.cpp:406] pool2 <- conv2
I0615 17:30:36.519366  3914 net.cpp:380] pool2 -> pool2
I0615 17:30:36.519528  3914 net.cpp:122] Setting up pool2
I0615 17:30:36.519546  3914 net.cpp:129] Top shape: 64 256 13 13 (2768896)
I0615 17:30:36.519595  3914 net.cpp:137] Memory required for data: 330718208
I0615 17:30:36.519605  3914 layer_factory.hpp:77] Creating layer norm2
I0615 17:30:36.519655  3914 net.cpp:84] Creating Layer norm2
I0615 17:30:36.519666  3914 net.cpp:406] norm2 <- pool2
I0615 17:30:36.519711  3914 net.cpp:380] norm2 -> norm2
I0615 17:30:36.519840  3914 net.cpp:122] Setting up norm2
I0615 17:30:36.519857  3914 net.cpp:129] Top shape: 64 256 13 13 (2768896)
I0615 17:30:36.519897  3914 net.cpp:137] Memory required for data: 341793792
I0615 17:30:36.519935  3914 layer_factory.hpp:77] Creating layer conv3
I0615 17:30:36.520007  3914 net.cpp:84] Creating Layer conv3
I0615 17:30:36.520018  3914 net.cpp:406] conv3 <- norm2
I0615 17:30:36.520086  3914 net.cpp:380] conv3 -> conv3
I0615 17:30:36.537184  3914 net.cpp:122] Setting up conv3
I0615 17:30:36.537220  3914 net.cpp:129] Top shape: 64 384 13 13 (4153344)
I0615 17:30:36.537226  3914 net.cpp:137] Memory required for data: 358407168
I0615 17:30:36.537246  3914 layer_factory.hpp:77] Creating layer relu3
I0615 17:30:36.537261  3914 net.cpp:84] Creating Layer relu3
I0615 17:30:36.537279  3914 net.cpp:406] relu3 <- conv3
I0615 17:30:36.537292  3914 net.cpp:367] relu3 -> conv3 (in-place)
I0615 17:30:36.537307  3914 net.cpp:122] Setting up relu3
I0615 17:30:36.537320  3914 net.cpp:129] Top shape: 64 384 13 13 (4153344)
I0615 17:30:36.537325  3914 net.cpp:137] Memory required for data: 375020544
I0615 17:30:36.537330  3914 layer_factory.hpp:77] Creating layer conv4
I0615 17:30:36.537345  3914 net.cpp:84] Creating Layer conv4
I0615 17:30:36.537351  3914 net.cpp:406] conv4 <- conv3
I0615 17:30:36.537360  3914 net.cpp:380] conv4 -> conv4
I0615 17:30:36.587602  3914 net.cpp:122] Setting up conv4
I0615 17:30:36.587641  3914 net.cpp:129] Top shape: 64 384 13 13 (4153344)
I0615 17:30:36.587649  3914 net.cpp:137] Memory required for data: 391633920
I0615 17:30:36.587664  3914 layer_factory.hpp:77] Creating layer relu4
I0615 17:30:36.587680  3914 net.cpp:84] Creating Layer relu4
I0615 17:30:36.587688  3914 net.cpp:406] relu4 <- conv4
I0615 17:30:36.587698  3914 net.cpp:367] relu4 -> conv4 (in-place)
I0615 17:30:36.587713  3914 net.cpp:122] Setting up relu4
I0615 17:30:36.587721  3914 net.cpp:129] Top shape: 64 384 13 13 (4153344)
I0615 17:30:36.587728  3914 net.cpp:137] Memory required for data: 408247296
I0615 17:30:36.587754  3914 layer_factory.hpp:77] Creating layer conv5
I0615 17:30:36.587771  3914 net.cpp:84] Creating Layer conv5
I0615 17:30:36.587777  3914 net.cpp:406] conv5 <- conv4
I0615 17:30:36.587787  3914 net.cpp:380] conv5 -> conv5
I0615 17:30:36.595250  3914 net.cpp:122] Setting up conv5
I0615 17:30:36.595296  3914 net.cpp:129] Top shape: 64 256 13 13 (2768896)
I0615 17:30:36.595304  3914 net.cpp:137] Memory required for data: 419322880
I0615 17:30:36.595324  3914 layer_factory.hpp:77] Creating layer relu5
I0615 17:30:36.595337  3914 net.cpp:84] Creating Layer relu5
I0615 17:30:36.595342  3914 net.cpp:406] relu5 <- conv5
I0615 17:30:36.595355  3914 net.cpp:367] relu5 -> conv5 (in-place)
I0615 17:30:36.595371  3914 net.cpp:122] Setting up relu5
I0615 17:30:36.595378  3914 net.cpp:129] Top shape: 64 256 13 13 (2768896)
I0615 17:30:36.595383  3914 net.cpp:137] Memory required for data: 430398464
I0615 17:30:36.595389  3914 layer_factory.hpp:77] Creating layer pool5
I0615 17:30:36.595401  3914 net.cpp:84] Creating Layer pool5
I0615 17:30:36.595407  3914 net.cpp:406] pool5 <- conv5
I0615 17:30:36.595417  3914 net.cpp:380] pool5 -> pool5
I0615 17:30:36.595504  3914 net.cpp:122] Setting up pool5
I0615 17:30:36.595522  3914 net.cpp:129] Top shape: 64 256 6 6 (589824)
I0615 17:30:36.595528  3914 net.cpp:137] Memory required for data: 432757760
I0615 17:30:36.595535  3914 layer_factory.hpp:77] Creating layer fc6
I0615 17:30:36.595551  3914 net.cpp:84] Creating Layer fc6
I0615 17:30:36.595558  3914 net.cpp:406] fc6 <- pool5
I0615 17:30:36.595568  3914 net.cpp:380] fc6 -> fc6
I0615 17:30:37.081125  3914 net.cpp:122] Setting up fc6
I0615 17:30:37.081171  3914 net.cpp:129] Top shape: 64 4096 (262144)
I0615 17:30:37.081176  3914 net.cpp:137] Memory required for data: 433806336
I0615 17:30:37.081187  3914 layer_factory.hpp:77] Creating layer relu6
I0615 17:30:37.081198  3914 net.cpp:84] Creating Layer relu6
I0615 17:30:37.081202  3914 net.cpp:406] relu6 <- fc6
I0615 17:30:37.081209  3914 net.cpp:367] relu6 -> fc6 (in-place)
I0615 17:30:37.081219  3914 net.cpp:122] Setting up relu6
I0615 17:30:37.081223  3914 net.cpp:129] Top shape: 64 4096 (262144)
I0615 17:30:37.081228  3914 net.cpp:137] Memory required for data: 434854912
I0615 17:30:37.081230  3914 layer_factory.hpp:77] Creating layer drop6
I0615 17:30:37.081238  3914 net.cpp:84] Creating Layer drop6
I0615 17:30:37.081240  3914 net.cpp:406] drop6 <- fc6
I0615 17:30:37.081244  3914 net.cpp:367] drop6 -> fc6 (in-place)
I0615 17:30:37.081279  3914 net.cpp:122] Setting up drop6
I0615 17:30:37.081290  3914 net.cpp:129] Top shape: 64 4096 (262144)
I0615 17:30:37.081295  3914 net.cpp:137] Memory required for data: 435903488
I0615 17:30:37.081300  3914 layer_factory.hpp:77] Creating layer fc7
I0615 17:30:37.081312  3914 net.cpp:84] Creating Layer fc7
I0615 17:30:37.081315  3914 net.cpp:406] fc7 <- fc6
I0615 17:30:37.081322  3914 net.cpp:380] fc7 -> fc7
I0615 17:30:37.265486  3914 net.cpp:122] Setting up fc7
I0615 17:30:37.265527  3914 net.cpp:129] Top shape: 64 4096 (262144)
I0615 17:30:37.265530  3914 net.cpp:137] Memory required for data: 436952064
I0615 17:30:37.265542  3914 layer_factory.hpp:77] Creating layer relu7
I0615 17:30:37.265552  3914 net.cpp:84] Creating Layer relu7
I0615 17:30:37.265557  3914 net.cpp:406] relu7 <- fc7
I0615 17:30:37.265563  3914 net.cpp:367] relu7 -> fc7 (in-place)
I0615 17:30:37.265573  3914 net.cpp:122] Setting up relu7
I0615 17:30:37.265578  3914 net.cpp:129] Top shape: 64 4096 (262144)
I0615 17:30:37.265580  3914 net.cpp:137] Memory required for data: 438000640
I0615 17:30:37.265583  3914 layer_factory.hpp:77] Creating layer drop7
I0615 17:30:37.265589  3914 net.cpp:84] Creating Layer drop7
I0615 17:30:37.265592  3914 net.cpp:406] drop7 <- fc7
I0615 17:30:37.265596  3914 net.cpp:367] drop7 -> fc7 (in-place)
I0615 17:30:37.265619  3914 net.cpp:122] Setting up drop7
I0615 17:30:37.265625  3914 net.cpp:129] Top shape: 64 4096 (262144)
I0615 17:30:37.265627  3914 net.cpp:137] Memory required for data: 439049216
I0615 17:30:37.265650  3914 layer_factory.hpp:77] Creating layer fc8
I0615 17:30:37.265657  3914 net.cpp:84] Creating Layer fc8
I0615 17:30:37.265661  3914 net.cpp:406] fc8 <- fc7
I0615 17:30:37.265666  3914 net.cpp:380] fc8 -> fc8
I0615 17:30:37.266404  3914 net.cpp:122] Setting up fc8
I0615 17:30:37.266424  3914 net.cpp:129] Top shape: 64 2 (128)
I0615 17:30:37.266430  3914 net.cpp:137] Memory required for data: 439049728
I0615 17:30:37.266443  3914 layer_factory.hpp:77] Creating layer loss
I0615 17:30:37.266463  3914 net.cpp:84] Creating Layer loss
I0615 17:30:37.266471  3914 net.cpp:406] loss <- fc8
I0615 17:30:37.266480  3914 net.cpp:406] loss <- label
I0615 17:30:37.266492  3914 net.cpp:380] loss -> loss
I0615 17:30:37.266515  3914 layer_factory.hpp:77] Creating layer loss
…
I0615 17:30:37.267230  3914 net.cpp:294] The NetState phase (1) differed from the phase (0) specified by a rule in layer data
I0615 17:30:37.267432  3914 net.cpp:51] Initializing net from parameters: 
name: "CaffeNet"
state {
  phase: TEST
}
layer {
  name: "data"
  type: "Data"
  top: "data"
  top: "label"
  include {
    phase: TEST
  }
  transform_param {
    mirror: false
    crop_size: 227
    mean_file: "/home/jondan/Documents/Ohjelmat/haalarimerkkiGo/mean.binaryproto"
  }
  data_param {
    source: "/home/jondan/Documents/Ohjelmat/haalarimerkkiGo/validation_lmdb"
    batch_size: 50
    backend: LMDB
  }
}
layer {
  name: "conv1"
  type: "Convolution"
  bottom: "data"
  top: "conv1"
  param {
    lr_mult: 1
    decay_mult: 1
  }
  param {
    lr_mult: 2
    decay_mult: 0
  }
  convolution_param {
    num_output: 96
    kernel_size: 11
    stride: 4
    weight_filler {
      type: "gaussian"
      std: 0.01
    }
    bias_filler {
      type: "constant"
      value: 0
    }
  }
}
layer {
  name: "relu1"
  type: "ReLU"
  bottom: "conv1"
  top: "conv1"
}
layer {
  name: "pool1"
  type: "Pooling"
  bottom: "conv1"
  top: "pool1"
  pooling_param {
    pool: MAX
    kernel_size: 3
    stride: 2
  }
}
layer {
  name: "norm1"
  type: "LRN"
  bottom: "pool1"
  top: "norm1"
  lrn_param {
    local_size: 5
    alpha: 0.0001
    beta: 0.75
  }
}
layer {
  name: "conv2"
  type: "Convolution"
  bottom: "norm1"
  top: "conv2"
  param {
    lr_mult: 1
    decay_mult: 1
  }
  param {
    lr_mult: 2
    decay_mult: 0
  }
  convolution_param {
    num_output: 256
    pad: 2
    kernel_size: 5
    group: 2
    weight_filler {
      type: "gaussian"
      std: 0.01
    }
    bias_filler {
      type: "constant"
      value: 1
    }
  }
}
layer {
  name: "relu2"
  type: "ReLU"
  bottom: "conv2"
  top: "conv2"
}
layer {
  name: "pool2"
  type: "Pooling"
  bottom: "conv2"
  top: "pool2"
  pooling_param {
    pool: MAX
    kernel_size: 3
    stride: 2
  }
}
layer {
  name: "norm2"
  type: "LRN"
  bottom: "pool2"
  top: "norm2"
  lrn_param {
    local_size: 5
    alpha: 0.0001
    beta: 0.75
  }
}
layer {
  name: "conv3"
  type: "Convolution"
  bottom: "norm2"
  top: "conv3"
  param {
    lr_mult: 1
    decay_mult: 1
  }
  param {
    lr_mult: 2
    decay_mult: 0
  }
  convolution_param {
    num_output: 384
    pad: 1
    kernel_size: 3
    weight_filler {
      type: "gaussian"
      std: 0.01
    }
    bias_filler {
      type: "constant"
      value: 0
    }
  }
}
layer {
  name: "relu3"
  type: "ReLU"
  bottom: "conv3"
  top: "conv3"
}
layer {
  name: "conv4"
  type: "Convolution"
  bottom: "conv3"
  top: "conv4"
  param {
    lr_mult: 1
    decay_mult: 1
  }
  param {
    lr_mult: 2
    decay_mult: 0
  }
  convolution_param {
    num_output: 384
    pad: 1
    kernel_size: 3
    group: 2
    weight_filler {
      type: "gaussian"
      std: 0.01
    }
    bias_filler {
      type: "constant"
      value: 1
    }
  }
}
layer {
  name: "relu4"
  type: "ReLU"
  bottom: "conv4"
  top: "conv4"
}
layer {
  name: "conv5"
  type: "Convolution"
  bottom: "conv4"
  top: "conv5"
  param {
    lr_mult: 1
    decay_mult: 1
  }
  param {
    lr_mult: 2
    decay_mult: 0
  }
  convolution_param {
    num_output: 256
    pad: 1
    kernel_size: 3
    group: 2
    weight_filler {
      type: "gaussian"
      std: 0.01
    }
    bias_filler {
      type: "constant"
      value: 1
    }
  }
}
layer {
  name: "relu5"
  type: "ReLU"
  bottom: "conv5"
  top: "conv5"
}
layer {
  name: "pool5"
  type: "Pooling"
  bottom: "conv5"
  top: "pool5"
  pooling_param {
    pool: MAX
    kernel_size: 3
    stride: 2
  }
}
layer {
  name: "fc6"
  type: "InnerProduct"
  bottom: "pool5"
  top: "fc6"
  param {
    lr_mult: 1
    decay_mult: 1
  }
  param {
    lr_mult: 2
    decay_mult: 0
  }
  inner_product_param {
    num_output: 4096
    weight_filler {
      type: "gaussian"
      std: 0.005
    }
    bias_filler {
      type: "constant"
      value: 1
    }
  }
}
layer {
  name: "relu6"
  type: "ReLU"
  bottom: "fc6"
  top: "fc6"
}
layer {
  name: "drop6"
  type: "Dropout"
  bottom: "fc6"
  top: "fc6"
  dropout_param {
    dropout_ratio: 0.5
  }
}
layer {
  name: "fc7"
  type: "InnerProduct"
  bottom: "fc6"
  top: "fc7"
  param {
    lr_mult: 1
    decay_mult: 1
  }
  param {
    lr_mult: 2
    decay_mult: 0
  }
  inner_product_param {
    num_output: 4096
    weight_filler {
      type: "gaussian"
      std: 0.005
    }
    bias_filler {
      type: "constant"
      value: 1
    }
  }
}
layer {
  name: "relu7"
  type: "ReLU"
  bottom: "fc7"
  top: "fc7"
}
layer {
  name: "drop7"
  type: "Dropout"
  bottom: "fc7"
  top: "fc7"
  dropout_param {
    dropout_ratio: 0.5
  }
}
layer {
  name: "fc8"
  type: "InnerProduct"
  bottom: "fc7"
  top: "fc8"
  param {
    lr_mult: 1
    decay_mult: 1
  }
  param {
    lr_mult: 2
    decay_mult: 0
  }
  inner_product_param {
    num_output: 2
    weight_filler {
      type: "gaussian"
      std: 0.01
    }
    bias_filler {
      type: "constant"
      value: 0
    }
  }
}
layer {
  name: "accuracy"
  type: "Accuracy"
  bottom: "fc8"
  bottom: "label"
  top: "accuracy"
  include {
    phase: TEST
  }
}
layer {
  name: "loss"
  type: "SoftmaxWithLoss"
  bottom: "fc8"
  bottom: "label"
  top: "loss"
}
I0615 17:30:37.267613  3914 layer_factory.hpp:77] Creating layer data
I0615 17:30:37.267698  3914 db_lmdb.cpp:35] Opened lmdb /home/jondan/Documents/Ohjelmat/haalarimerkkiGo/validation_lmdb
I0615 17:30:37.267722  3914 net.cpp:84] Creating Layer data
I0615 17:30:37.267735  3914 net.cpp:380] data -> data
I0615 17:30:37.267750  3914 net.cpp:380] data -> label
I0615 17:30:37.267763  3914 data_transformer.cpp:25] Loading mean file from: /home/jondan/Documents/Ohjelmat/haalarimerkkiGo/mean.binaryproto
I0615 17:30:37.270042  3914 data_layer.cpp:45] output data size: 50,3,227,227
I0615 17:30:37.391631  3914 net.cpp:122] Setting up data
I0615 17:30:37.391664  3914 net.cpp:129] Top shape: 50 3 227 227 (7729350)
I0615 17:30:37.391672  3914 net.cpp:129] Top shape: 50 (50)
I0615 17:30:37.391679  3914 net.cpp:137] Memory required for data: 30917600
I0615 17:30:37.391687  3914 layer_factory.hpp:77] Creating layer label_data_1_split
I0615 17:30:37.391703  3914 net.cpp:84] Creating Layer label_data_1_split
I0615 17:30:37.391711  3914 net.cpp:406] label_data_1_split <- label
I0615 17:30:37.391721  3914 net.cpp:380] label_data_1_split -> label_data_1_split_0
I0615 17:30:37.391737  3914 net.cpp:380] label_data_1_split -> label_data_1_split_1
I0615 17:30:37.391821  3914 net.cpp:122] Setting up label_data_1_split
I0615 17:30:37.391836  3914 net.cpp:129] Top shape: 50 (50)
I0615 17:30:37.391844  3914 net.cpp:129] Top shape: 50 (50)
I0615 17:30:37.391849  3914 net.cpp:137] Memory required for data: 30918000
I0615 17:30:37.391856  3914 layer_factory.hpp:77] Creating layer conv1
I0615 17:30:37.391876  3914 net.cpp:84] Creating Layer conv1
I0615 17:30:37.391885  3914 net.cpp:406] conv1 <- data
I0615 17:30:37.391896  3914 net.cpp:380] conv1 -> conv1
I0615 17:30:37.392807  3914 net.cpp:122] Setting up conv1
I0615 17:30:37.392823  3914 net.cpp:129] Top shape: 50 96 55 55 (14520000)
I0615 17:30:37.392829  3914 net.cpp:137] Memory required for data: 88998000
I0615 17:30:37.392848  3914 layer_factory.hpp:77] Creating layer relu1
I0615 17:30:37.392859  3914 net.cpp:84] Creating Layer relu1
I0615 17:30:37.392866  3914 net.cpp:406] relu1 <- conv1
I0615 17:30:37.392875  3914 net.cpp:367] relu1 -> conv1 (in-place)
I0615 17:30:37.392886  3914 net.cpp:122] Setting up relu1
I0615 17:30:37.392895  3914 net.cpp:129] Top shape: 50 96 55 55 (14520000)
I0615 17:30:37.392901  3914 net.cpp:137] Memory required for data: 147078000
I0615 17:30:37.392907  3914 layer_factory.hpp:77] Creating layer pool1
I0615 17:30:37.392920  3914 net.cpp:84] Creating Layer pool1
I0615 17:30:37.392927  3914 net.cpp:406] pool1 <- conv1
I0615 17:30:37.392937  3914 net.cpp:380] pool1 -> pool1
I0615 17:30:37.392998  3914 net.cpp:122] Setting up pool1
I0615 17:30:37.393010  3914 net.cpp:129] Top shape: 50 96 27 27 (3499200)
I0615 17:30:37.393016  3914 net.cpp:137] Memory required for data: 161074800
I0615 17:30:37.393023  3914 layer_factory.hpp:77] Creating layer norm1
I0615 17:30:37.393033  3914 net.cpp:84] Creating Layer norm1
I0615 17:30:37.393039  3914 net.cpp:406] norm1 <- pool1
I0615 17:30:37.393049  3914 net.cpp:380] norm1 -> norm1
I0615 17:30:37.393100  3914 net.cpp:122] Setting up norm1
I0615 17:30:37.393111  3914 net.cpp:129] Top shape: 50 96 27 27 (3499200)
I0615 17:30:37.393117  3914 net.cpp:137] Memory required for data: 175071600
I0615 17:30:37.393122  3914 layer_factory.hpp:77] Creating layer conv2
I0615 17:30:37.393137  3914 net.cpp:84] Creating Layer conv2
I0615 17:30:37.393144  3914 net.cpp:406] conv2 <- norm1
I0615 17:30:37.393155  3914 net.cpp:380] conv2 -> conv2
I0615 17:30:37.418081  3914 net.cpp:122] Setting up conv2
I0615 17:30:37.418185  3914 net.cpp:129] Top shape: 50 256 27 27 (9331200)
I0615 17:30:37.418211  3914 net.cpp:137] Memory required for data: 212396400
I0615 17:30:37.418259  3914 layer_factory.hpp:77] Creating layer relu2
I0615 17:30:37.418344  3914 net.cpp:84] Creating Layer relu2
I0615 17:30:37.418366  3914 net.cpp:406] relu2 <- conv2
I0615 17:30:37.418390  3914 net.cpp:367] relu2 -> conv2 (in-place)
I0615 17:30:37.418417  3914 net.cpp:122] Setting up relu2
I0615 17:30:37.418439  3914 net.cpp:129] Top shape: 50 256 27 27 (9331200)
I0615 17:30:37.418457  3914 net.cpp:137] Memory required for data: 249721200
I0615 17:30:37.418473  3914 layer_factory.hpp:77] Creating layer pool2
I0615 17:30:37.418498  3914 net.cpp:84] Creating Layer pool2
I0615 17:30:37.418515  3914 net.cpp:406] pool2 <- conv2
I0615 17:30:37.418537  3914 net.cpp:380] pool2 -> pool2
I0615 17:30:37.418637  3914 net.cpp:122] Setting up pool2
I0615 17:30:37.418666  3914 net.cpp:129] Top shape: 50 256 13 13 (2163200)
I0615 17:30:37.418686  3914 net.cpp:137] Memory required for data: 258374000
I0615 17:30:37.418705  3914 layer_factory.hpp:77] Creating layer norm2
I0615 17:30:37.418728  3914 net.cpp:84] Creating Layer norm2
I0615 17:30:37.418747  3914 net.cpp:406] norm2 <- pool2
I0615 17:30:37.418769  3914 net.cpp:380] norm2 -> norm2
I0615 17:30:37.418841  3914 net.cpp:122] Setting up norm2
I0615 17:30:37.418869  3914 net.cpp:129] Top shape: 50 256 13 13 (2163200)
I0615 17:30:37.418887  3914 net.cpp:137] Memory required for data: 267026800
I0615 17:30:37.418906  3914 layer_factory.hpp:77] Creating layer conv3
I0615 17:30:37.418936  3914 net.cpp:84] Creating Layer conv3
I0615 17:30:37.418957  3914 net.cpp:406] conv3 <- norm2
I0615 17:30:37.418983  3914 net.cpp:380] conv3 -> conv3
I0615 17:30:37.431171  3914 net.cpp:122] Setting up conv3
I0615 17:30:37.431208  3914 net.cpp:129] Top shape: 50 384 13 13 (3244800)
I0615 17:30:37.431216  3914 net.cpp:137] Memory required for data: 280006000
I0615 17:30:37.431234  3914 layer_factory.hpp:77] Creating layer relu3
I0615 17:30:37.431249  3914 net.cpp:84] Creating Layer relu3
I0615 17:30:37.431257  3914 net.cpp:406] relu3 <- conv3
I0615 17:30:37.431267  3914 net.cpp:367] relu3 -> conv3 (in-place)
I0615 17:30:37.431278  3914 net.cpp:122] Setting up relu3
I0615 17:30:37.431287  3914 net.cpp:129] Top shape: 50 384 13 13 (3244800)
I0615 17:30:37.431293  3914 net.cpp:137] Memory required for data: 292985200
I0615 17:30:37.431298  3914 layer_factory.hpp:77] Creating layer conv4
I0615 17:30:37.431313  3914 net.cpp:84] Creating Layer conv4
I0615 17:30:37.431320  3914 net.cpp:406] conv4 <- conv3
I0615 17:30:37.431331  3914 net.cpp:380] conv4 -> conv4
I0615 17:30:37.468089  3914 net.cpp:122] Setting up conv4
I0615 17:30:37.468240  3914 net.cpp:129] Top shape: 50 384 13 13 (3244800)
I0615 17:30:37.468273  3914 net.cpp:137] Memory required for data: 305964400
I0615 17:30:37.468308  3914 layer_factory.hpp:77] Creating layer relu4
I0615 17:30:37.468343  3914 net.cpp:84] Creating Layer relu4
I0615 17:30:37.468370  3914 net.cpp:406] relu4 <- conv4
I0615 17:30:37.468400  3914 net.cpp:367] relu4 -> conv4 (in-place)
I0615 17:30:37.468433  3914 net.cpp:122] Setting up relu4
I0615 17:30:37.468461  3914 net.cpp:129] Top shape: 50 384 13 13 (3244800)
I0615 17:30:37.468484  3914 net.cpp:137] Memory required for data: 318943600
I0615 17:30:37.468508  3914 layer_factory.hpp:77] Creating layer conv5
I0615 17:30:37.468540  3914 net.cpp:84] Creating Layer conv5
I0615 17:30:37.468565  3914 net.cpp:406] conv5 <- conv4
I0615 17:30:37.468595  3914 net.cpp:380] conv5 -> conv5
I0615 17:30:37.477604  3914 net.cpp:122] Setting up conv5
I0615 17:30:37.477645  3914 net.cpp:129] Top shape: 50 256 13 13 (2163200)
I0615 17:30:37.477651  3914 net.cpp:137] Memory required for data: 327596400
I0615 17:30:37.477689  3914 layer_factory.hpp:77] Creating layer relu5
I0615 17:30:37.477774  3914 net.cpp:84] Creating Layer relu5
I0615 17:30:37.477783  3914 net.cpp:406] relu5 <- conv5
I0615 17:30:37.477813  3914 net.cpp:367] relu5 -> conv5 (in-place)
I0615 17:30:37.477833  3914 net.cpp:122] Setting up relu5
I0615 17:30:37.477854  3914 net.cpp:129] Top shape: 50 256 13 13 (2163200)
I0615 17:30:37.477861  3914 net.cpp:137] Memory required for data: 336249200
I0615 17:30:37.477895  3914 layer_factory.hpp:77] Creating layer pool5
I0615 17:30:37.477919  3914 net.cpp:84] Creating Layer pool5
I0615 17:30:37.477928  3914 net.cpp:406] pool5 <- conv5
I0615 17:30:37.477946  3914 net.cpp:380] pool5 -> pool5
I0615 17:30:37.478024  3914 net.cpp:122] Setting up pool5
I0615 17:30:37.478040  3914 net.cpp:129] Top shape: 50 256 6 6 (460800)
I0615 17:30:37.478049  3914 net.cpp:137] Memory required for data: 338092400
I0615 17:30:37.478062  3914 layer_factory.hpp:77] Creating layer fc6
I0615 17:30:37.478080  3914 net.cpp:84] Creating Layer fc6
I0615 17:30:37.478087  3914 net.cpp:406] fc6 <- pool5
I0615 17:30:37.478109  3914 net.cpp:380] fc6 -> fc6
I0615 17:30:37.903287  3914 net.cpp:122] Setting up fc6
I0615 17:30:37.903326  3914 net.cpp:129] Top shape: 50 4096 (204800)
I0615 17:30:37.903345  3914 net.cpp:137] Memory required for data: 338911600
I0615 17:30:37.903365  3914 layer_factory.hpp:77] Creating layer relu6
I0615 17:30:37.903388  3914 net.cpp:84] Creating Layer relu6
I0615 17:30:37.903401  3914 net.cpp:406] relu6 <- fc6
I0615 17:30:37.903415  3914 net.cpp:367] relu6 -> fc6 (in-place)
I0615 17:30:37.903431  3914 net.cpp:122] Setting up relu6
I0615 17:30:37.903442  3914 net.cpp:129] Top shape: 50 4096 (204800)
I0615 17:30:37.903448  3914 net.cpp:137] Memory required for data: 339730800
I0615 17:30:37.903453  3914 layer_factory.hpp:77] Creating layer drop6
I0615 17:30:37.903473  3914 net.cpp:84] Creating Layer drop6
I0615 17:30:37.903479  3914 net.cpp:406] drop6 <- fc6
I0615 17:30:37.903486  3914 net.cpp:367] drop6 -> fc6 (in-place)
I0615 17:30:37.903549  3914 net.cpp:122] Setting up drop6
I0615 17:30:37.903564  3914 net.cpp:129] Top shape: 50 4096 (204800)
I0615 17:30:37.903569  3914 net.cpp:137] Memory required for data: 340550000
I0615 17:30:37.903575  3914 layer_factory.hpp:77] Creating layer fc7
I0615 17:30:37.903599  3914 net.cpp:84] Creating Layer fc7
I0615 17:30:37.903615  3914 net.cpp:406] fc7 <- fc6
I0615 17:30:37.903627  3914 net.cpp:380] fc7 -> fc7
I0615 17:30:38.085381  3914 net.cpp:122] Setting up fc7
I0615 17:30:38.085415  3914 net.cpp:129] Top shape: 50 4096 (204800)
I0615 17:30:38.085420  3914 net.cpp:137] Memory required for data: 341369200
I0615 17:30:38.085445  3914 layer_factory.hpp:77] Creating layer relu7
I0615 17:30:38.085459  3914 net.cpp:84] Creating Layer relu7
I0615 17:30:38.085467  3914 net.cpp:406] relu7 <- fc7
I0615 17:30:38.085479  3914 net.cpp:367] relu7 -> fc7 (in-place)
I0615 17:30:38.085492  3914 net.cpp:122] Setting up relu7
I0615 17:30:38.085500  3914 net.cpp:129] Top shape: 50 4096 (204800)
I0615 17:30:38.085506  3914 net.cpp:137] Memory required for data: 342188400
I0615 17:30:38.085512  3914 layer_factory.hpp:77] Creating layer drop7
I0615 17:30:38.085522  3914 net.cpp:84] Creating Layer drop7
I0615 17:30:38.085528  3914 net.cpp:406] drop7 <- fc7
I0615 17:30:38.085539  3914 net.cpp:367] drop7 -> fc7 (in-place)
I0615 17:30:38.085583  3914 net.cpp:122] Setting up drop7
I0615 17:30:38.085620  3914 net.cpp:129] Top shape: 50 4096 (204800)
I0615 17:30:38.085644  3914 net.cpp:137] Memory required for data: 343007600
I0615 17:30:38.085654  3914 layer_factory.hpp:77] Creating layer fc8
I0615 17:30:38.085666  3914 net.cpp:84] Creating Layer fc8
I0615 17:30:38.085674  3914 net.cpp:406] fc8 <- fc7
I0615 17:30:38.085687  3914 net.cpp:380] fc8 -> fc8
I0615 17:30:38.085907  3914 net.cpp:122] Setting up fc8
I0615 17:30:38.085921  3914 net.cpp:129] Top shape: 50 2 (100)
I0615 17:30:38.085927  3914 net.cpp:137] Memory required for data: 343008000
I0615 17:30:38.085938  3914 layer_factory.hpp:77] Creating layer fc8_fc8_0_split
I0615 17:30:38.085948  3914 net.cpp:84] Creating Layer fc8_fc8_0_split
I0615 17:30:38.085955  3914 net.cpp:406] fc8_fc8_0_split <- fc8
I0615 17:30:38.085969  3914 net.cpp:380] fc8_fc8_0_split -> fc8_fc8_0_split_0
I0615 17:30:38.085983  3914 net.cpp:380] fc8_fc8_0_split -> fc8_fc8_0_split_1
I0615 17:30:38.086036  3914 net.cpp:122] Setting up fc8_fc8_0_split
I0615 17:30:38.086047  3914 net.cpp:129] Top shape: 50 2 (100)
I0615 17:30:38.086055  3914 net.cpp:129] Top shape: 50 2 (100)
I0615 17:30:38.086077  3914 net.cpp:137] Memory required for data: 343008800
I0615 17:30:38.086086  3914 layer_factory.hpp:77] Creating layer accuracy
I0615 17:30:38.086104  3914 net.cpp:84] Creating Layer accuracy
I0615 17:30:38.086112  3914 net.cpp:406] accuracy <- fc8_fc8_0_split_0
I0615 17:30:38.086120  3914 net.cpp:406] accuracy <- label_data_1_split_0
I0615 17:30:38.086134  3914 net.cpp:380] accuracy -> accuracy
…
