…
I0616 09:01:37.142604  3392 net.cpp:294] The NetState phase (0) differed from the phase (1) specified by a rule in layer accuracy
I0616 09:01:37.142789  3392 net.cpp:51] Initializing net from parameters: 
name: "CaffeNet"
state {
  phase: TRAIN
  level: 0
  stage: ""
}
layer {
  name: "data"
  type: "Data"
  top: "data"
  top: "label"
  include {
    phase: TRAIN
  }
  transform_param {
    mirror: true
    crop_size: 227
    mean_file: "/home/jondan/Documents/Ohjelmat/haalarimerkkiGo/mean.binaryproto"
  }
  data_param {
    source: "/home/jondan/Documents/Ohjelmat/haalarimerkkiGo/training_lmdb"
    batch_size: 64
    backend: LMDB
  }
}
layer {
  name: "conv1"
  type: "Convolution"
  bottom: "data"
  top: "conv1"
  param {
    lr_mult: 1
    decay_mult: 1
  }
  param {
    lr_mult: 2
    decay_mult: 0
  }
  convolution_param {
    num_output: 96
    kernel_size: 11
    stride: 4
    weight_filler {
      type: "gaussian"
      std: 0.01
    }
    bias_filler {
      type: "constant"
      value: 0
    }
  }
}
layer {
  name: "relu1"
  type: "ReLU"
  bottom: "conv1"
  top: "conv1"
}
layer {
  name: "pool1"
  type: "Pooling"
  bottom: "conv1"
  top: "pool1"
  pooling_param {
    pool: MAX
    kernel_size: 3
    stride: 2
  }
}
layer {
  name: "norm1"
  type: "LRN"
  bottom: "pool1"
  top: "norm1"
  lrn_param {
    local_size: 5
    alpha: 0.0001
    beta: 0.75
  }
}
layer {
  name: "conv2"
  type: "Convolution"
  bottom: "norm1"
  top: "conv2"
  param {
    lr_mult: 1
    decay_mult: 1
  }
  param {
    lr_mult: 2
    decay_mult: 0
  }
  convolution_param {
    num_output: 256
    pad: 2
    kernel_size: 5
    group: 2
    weight_filler {
      type: "gaussian"
      std: 0.01
    }
    bias_filler {
      type: "constant"
      value: 1
    }
  }
}
layer {
  name: "relu2"
  type: "ReLU"
  bottom: "conv2"
  top: "conv2"
}
layer {
  name: "pool2"
  type: "Pooling"
  bottom: "conv2"
  top: "pool2"
  pooling_param {
    pool: MAX
    kernel_size: 3
    stride: 2
  }
}
layer {
  name: "norm2"
  type: "LRN"
  bottom: "pool2"
  top: "norm2"
  lrn_param {
    local_size: 5
    alpha: 0.0001
    beta: 0.75
  }
}
layer {
  name: "conv3"
  type: "Convolution"
  bottom: "norm2"
  top: "conv3"
  param {
    lr_mult: 1
    decay_mult: 1
  }
  param {
    lr_mult: 2
    decay_mult: 0
  }
  convolution_param {
    num_output: 384
    pad: 1
    kernel_size: 3
    weight_filler {
      type: "gaussian"
      std: 0.01
    }
    bias_filler {
      type: "constant"
      value: 0
    }
  }
}
layer {
  name: "relu3"
  type: "ReLU"
  bottom: "conv3"
  top: "conv3"
}
layer {
  name: "conv4"
  type: "Convolution"
  bottom: "conv3"
  top: "conv4"
  param {
    lr_mult: 1
    decay_mult: 1
  }
  param {
    lr_mult: 2
    decay_mult: 0
  }
  convolution_param {
    num_output: 384
    pad: 1
    kernel_size: 3
    group: 2
    weight_filler {
      type: "gaussian"
      std: 0.01
    }
    bias_filler {
      type: "constant"
      value: 1
    }
  }
}
layer {
  name: "relu4"
  type: "ReLU"
  bottom: "conv4"
  top: "conv4"
}
layer {
  name: "conv5"
  type: "Convolution"
  bottom: "conv4"
  top: "conv5"
  param {
    lr_mult: 1
    decay_mult: 1
  }
  param {
    lr_mult: 2
    decay_mult: 0
  }
  convolution_param {
    num_output: 256
    pad: 1
    kernel_size: 3
    group: 2
    weight_filler {
      type: "gaussian"
      std: 0.01
    }
    bias_filler {
      type: "constant"
      value: 1
    }
  }
}
layer {
  name: "relu5"
  type: "ReLU"
  bottom: "conv5"
  top: "conv5"
}
layer {
  name: "pool5"
  type: "Pooling"
  bottom: "conv5"
  top: "pool5"
  pooling_param {
    pool: MAX
    kernel_size: 3
    stride: 2
  }
}
layer {
  name: "fc6"
  type: "InnerProduct"
  bottom: "pool5"
  top: "fc6"
  param {
    lr_mult: 1
    decay_mult: 1
  }
  param {
    lr_mult: 2
    decay_mult: 0
  }
  inner_product_param {
    num_output: 4096
    weight_filler {
      type: "gaussian"
      std: 0.005
    }
    bias_filler {
      type: "constant"
      value: 1
    }
  }
}
layer {
  name: "relu6"
  type: "ReLU"
  bottom: "fc6"
  top: "fc6"
}
layer {
  name: "drop6"
  type: "Dropout"
  bottom: "fc6"
  top: "fc6"
  dropout_param {
    dropout_ratio: 0.5
  }
}
layer {
  name: "fc7"
  type: "InnerProduct"
  bottom: "fc6"
  top: "fc7"
  param {
    lr_mult: 1
    decay_mult: 1
  }
  param {
    lr_mult: 2
    decay_mult: 0
  }
  inner_product_param {
    num_output: 4096
    weight_filler {
      type: "gaussian"
      std: 0.005
    }
    bias_filler {
      type: "constant"
      value: 1
    }
  }
}
layer {
  name: "relu7"
  type: "ReLU"
  bottom: "fc7"
  top: "fc7"
}
layer {
  name: "drop7"
  type: "Dropout"
  bottom: "fc7"
  top: "fc7"
  dropout_param {
    dropout_ratio: 0.5
  }
}
layer {
  name: "fc8"
  type: "InnerProduct"
  bottom: "fc7"
  top: "fc8"
  param {
    lr_mult: 1
    decay_mult: 1
  }
  param {
    lr_mult: 2
    decay_mult: 0
  }
  inner_product_param {
    num_output: 2
    weight_filler {
      type: "gaussian"
      std: 0.01
    }
    bias_filler {
      type: "constant"
      value: 0
    }
  }
}
layer {
  name: "loss"
  type: "SoftmaxWithLoss"
  bottom: "fc8"
  bottom: "label"
  top: "loss"
}
I0616 09:01:37.142937  3392 layer_factory.hpp:77] Creating layer data
I0616 09:01:37.143074  3392 db_lmdb.cpp:35] Opened lmdb /home/jondan/Documents/Ohjelmat/haalarimerkkiGo/training_lmdb
I0616 09:01:37.143110  3392 net.cpp:84] Creating Layer data
I0616 09:01:37.143122  3392 net.cpp:380] data -> data
I0616 09:01:37.143157  3392 net.cpp:380] data -> label
I0616 09:01:37.143179  3392 data_transformer.cpp:25] Loading mean file from: /home/jondan/Documents/Ohjelmat/haalarimerkkiGo/mean.binaryproto
I0616 09:01:37.146355  3392 data_layer.cpp:45] output data size: 64,3,227,227
I0616 09:01:37.298154  3392 net.cpp:122] Setting up data
I0616 09:01:37.298190  3392 net.cpp:129] Top shape: 64 3 227 227 (9893568)
I0616 09:01:37.298202  3392 net.cpp:129] Top shape: 64 (64)
I0616 09:01:37.298207  3392 net.cpp:137] Memory required for data: 39574528
I0616 09:01:37.298221  3392 layer_factory.hpp:77] Creating layer conv1
I0616 09:01:37.298251  3392 net.cpp:84] Creating Layer conv1
I0616 09:01:37.298264  3392 net.cpp:406] conv1 <- data
I0616 09:01:37.298281  3392 net.cpp:380] conv1 -> conv1
I0616 09:01:37.301923  3392 net.cpp:122] Setting up conv1
I0616 09:01:37.301950  3392 net.cpp:129] Top shape: 64 96 55 55 (18585600)
I0616 09:01:37.301954  3392 net.cpp:137] Memory required for data: 113916928
I0616 09:01:37.301981  3392 layer_factory.hpp:77] Creating layer relu1
I0616 09:01:37.302001  3392 net.cpp:84] Creating Layer relu1
I0616 09:01:37.302012  3392 net.cpp:406] relu1 <- conv1
I0616 09:01:37.302023  3392 net.cpp:367] relu1 -> conv1 (in-place)
I0616 09:01:37.302042  3392 net.cpp:122] Setting up relu1
I0616 09:01:37.302053  3392 net.cpp:129] Top shape: 64 96 55 55 (18585600)
I0616 09:01:37.302063  3392 net.cpp:137] Memory required for data: 188259328
I0616 09:01:37.302069  3392 layer_factory.hpp:77] Creating layer pool1
I0616 09:01:37.302085  3392 net.cpp:84] Creating Layer pool1
I0616 09:01:37.302094  3392 net.cpp:406] pool1 <- conv1
I0616 09:01:37.302104  3392 net.cpp:380] pool1 -> pool1
I0616 09:01:37.302170  3392 net.cpp:122] Setting up pool1
I0616 09:01:37.302181  3392 net.cpp:129] Top shape: 64 96 27 27 (4478976)
I0616 09:01:37.302186  3392 net.cpp:137] Memory required for data: 206175232
I0616 09:01:37.302212  3392 layer_factory.hpp:77] Creating layer norm1
I0616 09:01:37.302222  3392 net.cpp:84] Creating Layer norm1
I0616 09:01:37.302227  3392 net.cpp:406] norm1 <- pool1
I0616 09:01:37.302232  3392 net.cpp:380] norm1 -> norm1
I0616 09:01:37.325830  3392 net.cpp:122] Setting up norm1
I0616 09:01:37.325858  3392 net.cpp:129] Top shape: 64 96 27 27 (4478976)
I0616 09:01:37.325865  3392 net.cpp:137] Memory required for data: 224091136
I0616 09:01:37.325873  3392 layer_factory.hpp:77] Creating layer conv2
I0616 09:01:37.325896  3392 net.cpp:84] Creating Layer conv2
I0616 09:01:37.325907  3392 net.cpp:406] conv2 <- norm1
I0616 09:01:37.325922  3392 net.cpp:380] conv2 -> conv2
I0616 09:01:37.333175  3392 net.cpp:122] Setting up conv2
I0616 09:01:37.333219  3392 net.cpp:129] Top shape: 64 256 27 27 (11943936)
I0616 09:01:37.333225  3392 net.cpp:137] Memory required for data: 271866880
I0616 09:01:37.333263  3392 layer_factory.hpp:77] Creating layer relu2
I0616 09:01:37.333295  3392 net.cpp:84] Creating Layer relu2
I0616 09:01:37.333305  3392 net.cpp:406] relu2 <- conv2
I0616 09:01:37.333324  3392 net.cpp:367] relu2 -> conv2 (in-place)
I0616 09:01:37.333358  3392 net.cpp:122] Setting up relu2
I0616 09:01:37.333366  3392 net.cpp:129] Top shape: 64 256 27 27 (11943936)
I0616 09:01:37.333382  3392 net.cpp:137] Memory required for data: 319642624
I0616 09:01:37.333395  3392 layer_factory.hpp:77] Creating layer pool2
I0616 09:01:37.333420  3392 net.cpp:84] Creating Layer pool2
I0616 09:01:37.333427  3392 net.cpp:406] pool2 <- conv2
I0616 09:01:37.333446  3392 net.cpp:380] pool2 -> pool2
I0616 09:01:37.333513  3392 net.cpp:122] Setting up pool2
I0616 09:01:37.333523  3392 net.cpp:129] Top shape: 64 256 13 13 (2768896)
I0616 09:01:37.333529  3392 net.cpp:137] Memory required for data: 330718208
I0616 09:01:37.333535  3392 layer_factory.hpp:77] Creating layer norm2
I0616 09:01:37.333551  3392 net.cpp:84] Creating Layer norm2
I0616 09:01:37.333559  3392 net.cpp:406] norm2 <- pool2
I0616 09:01:37.333577  3392 net.cpp:380] norm2 -> norm2
I0616 09:01:37.333623  3392 net.cpp:122] Setting up norm2
I0616 09:01:37.333633  3392 net.cpp:129] Top shape: 64 256 13 13 (2768896)
I0616 09:01:37.333647  3392 net.cpp:137] Memory required for data: 341793792
I0616 09:01:37.333658  3392 layer_factory.hpp:77] Creating layer conv3
I0616 09:01:37.333686  3392 net.cpp:84] Creating Layer conv3
I0616 09:01:37.333693  3392 net.cpp:406] conv3 <- norm2
I0616 09:01:37.333712  3392 net.cpp:380] conv3 -> conv3
I0616 09:01:37.345530  3392 net.cpp:122] Setting up conv3
I0616 09:01:37.345564  3392 net.cpp:129] Top shape: 64 384 13 13 (4153344)
I0616 09:01:37.345571  3392 net.cpp:137] Memory required for data: 358407168
I0616 09:01:37.345607  3392 layer_factory.hpp:77] Creating layer relu3
I0616 09:01:37.345628  3392 net.cpp:84] Creating Layer relu3
I0616 09:01:37.345638  3392 net.cpp:406] relu3 <- conv3
I0616 09:01:37.345656  3392 net.cpp:367] relu3 -> conv3 (in-place)
I0616 09:01:37.345677  3392 net.cpp:122] Setting up relu3
I0616 09:01:37.345690  3392 net.cpp:129] Top shape: 64 384 13 13 (4153344)
I0616 09:01:37.345710  3392 net.cpp:137] Memory required for data: 375020544
I0616 09:01:37.345726  3392 layer_factory.hpp:77] Creating layer conv4
I0616 09:01:37.345757  3392 net.cpp:84] Creating Layer conv4
I0616 09:01:37.345763  3392 net.cpp:406] conv4 <- conv3
I0616 09:01:37.345782  3392 net.cpp:380] conv4 -> conv4
I0616 09:01:37.393501  3392 net.cpp:122] Setting up conv4
I0616 09:01:37.393545  3392 net.cpp:129] Top shape: 64 384 13 13 (4153344)
I0616 09:01:37.393553  3392 net.cpp:137] Memory required for data: 391633920
I0616 09:01:37.393566  3392 layer_factory.hpp:77] Creating layer relu4
I0616 09:01:37.393581  3392 net.cpp:84] Creating Layer relu4
I0616 09:01:37.393589  3392 net.cpp:406] relu4 <- conv4
I0616 09:01:37.393599  3392 net.cpp:367] relu4 -> conv4 (in-place)
I0616 09:01:37.393613  3392 net.cpp:122] Setting up relu4
I0616 09:01:37.393621  3392 net.cpp:129] Top shape: 64 384 13 13 (4153344)
I0616 09:01:37.393627  3392 net.cpp:137] Memory required for data: 408247296
I0616 09:01:37.393664  3392 layer_factory.hpp:77] Creating layer conv5
I0616 09:01:37.393683  3392 net.cpp:84] Creating Layer conv5
I0616 09:01:37.393692  3392 net.cpp:406] conv5 <- conv4
I0616 09:01:37.393705  3392 net.cpp:380] conv5 -> conv5
I0616 09:01:37.402062  3392 net.cpp:122] Setting up conv5
I0616 09:01:37.402112  3392 net.cpp:129] Top shape: 64 256 13 13 (2768896)
I0616 09:01:37.402118  3392 net.cpp:137] Memory required for data: 419322880
I0616 09:01:37.402137  3392 layer_factory.hpp:77] Creating layer relu5
I0616 09:01:37.402154  3392 net.cpp:84] Creating Layer relu5
I0616 09:01:37.402161  3392 net.cpp:406] relu5 <- conv5
I0616 09:01:37.402173  3392 net.cpp:367] relu5 -> conv5 (in-place)
I0616 09:01:37.402187  3392 net.cpp:122] Setting up relu5
I0616 09:01:37.402195  3392 net.cpp:129] Top shape: 64 256 13 13 (2768896)
I0616 09:01:37.402200  3392 net.cpp:137] Memory required for data: 430398464
I0616 09:01:37.402206  3392 layer_factory.hpp:77] Creating layer pool5
I0616 09:01:37.402216  3392 net.cpp:84] Creating Layer pool5
I0616 09:01:37.402223  3392 net.cpp:406] pool5 <- conv5
I0616 09:01:37.402231  3392 net.cpp:380] pool5 -> pool5
I0616 09:01:37.402292  3392 net.cpp:122] Setting up pool5
I0616 09:01:37.402304  3392 net.cpp:129] Top shape: 64 256 6 6 (589824)
I0616 09:01:37.402309  3392 net.cpp:137] Memory required for data: 432757760
I0616 09:01:37.402315  3392 layer_factory.hpp:77] Creating layer fc6
I0616 09:01:37.402331  3392 net.cpp:84] Creating Layer fc6
I0616 09:01:37.402338  3392 net.cpp:406] fc6 <- pool5
I0616 09:01:37.402348  3392 net.cpp:380] fc6 -> fc6
I0616 09:01:37.951539  3392 net.cpp:122] Setting up fc6
I0616 09:01:37.951575  3392 net.cpp:129] Top shape: 64 4096 (262144)
I0616 09:01:37.951581  3392 net.cpp:137] Memory required for data: 433806336
I0616 09:01:37.951593  3392 layer_factory.hpp:77] Creating layer relu6
I0616 09:01:37.951617  3392 net.cpp:84] Creating Layer relu6
I0616 09:01:37.951627  3392 net.cpp:406] relu6 <- fc6
I0616 09:01:37.951638  3392 net.cpp:367] relu6 -> fc6 (in-place)
I0616 09:01:37.951658  3392 net.cpp:122] Setting up relu6
I0616 09:01:37.951669  3392 net.cpp:129] Top shape: 64 4096 (262144)
I0616 09:01:37.951674  3392 net.cpp:137] Memory required for data: 434854912
I0616 09:01:37.951679  3392 layer_factory.hpp:77] Creating layer drop6
I0616 09:01:37.951689  3392 net.cpp:84] Creating Layer drop6
I0616 09:01:37.951697  3392 net.cpp:406] drop6 <- fc6
I0616 09:01:37.951705  3392 net.cpp:367] drop6 -> fc6 (in-place)
I0616 09:01:37.951750  3392 net.cpp:122] Setting up drop6
I0616 09:01:37.951766  3392 net.cpp:129] Top shape: 64 4096 (262144)
I0616 09:01:37.951781  3392 net.cpp:137] Memory required for data: 435903488
I0616 09:01:37.951784  3392 layer_factory.hpp:77] Creating layer fc7
I0616 09:01:37.951793  3392 net.cpp:84] Creating Layer fc7
I0616 09:01:37.951797  3392 net.cpp:406] fc7 <- fc6
I0616 09:01:37.951803  3392 net.cpp:380] fc7 -> fc7
I0616 09:01:38.176849  3392 net.cpp:122] Setting up fc7
I0616 09:01:38.176892  3392 net.cpp:129] Top shape: 64 4096 (262144)
I0616 09:01:38.176898  3392 net.cpp:137] Memory required for data: 436952064
I0616 09:01:38.176910  3392 layer_factory.hpp:77] Creating layer relu7
I0616 09:01:38.176923  3392 net.cpp:84] Creating Layer relu7
I0616 09:01:38.176929  3392 net.cpp:406] relu7 <- fc7
I0616 09:01:38.176936  3392 net.cpp:367] relu7 -> fc7 (in-place)
I0616 09:01:38.176952  3392 net.cpp:122] Setting up relu7
I0616 09:01:38.176964  3392 net.cpp:129] Top shape: 64 4096 (262144)
I0616 09:01:38.176970  3392 net.cpp:137] Memory required for data: 438000640
I0616 09:01:38.176980  3392 layer_factory.hpp:77] Creating layer drop7
I0616 09:01:38.176990  3392 net.cpp:84] Creating Layer drop7
I0616 09:01:38.176997  3392 net.cpp:406] drop7 <- fc7
I0616 09:01:38.177007  3392 net.cpp:367] drop7 -> fc7 (in-place)
I0616 09:01:38.177045  3392 net.cpp:122] Setting up drop7
I0616 09:01:38.177064  3392 net.cpp:129] Top shape: 64 4096 (262144)
I0616 09:01:38.177079  3392 net.cpp:137] Memory required for data: 439049216
I0616 09:01:38.177104  3392 layer_factory.hpp:77] Creating layer fc8
I0616 09:01:38.177119  3392 net.cpp:84] Creating Layer fc8
I0616 09:01:38.177125  3392 net.cpp:406] fc8 <- fc7
I0616 09:01:38.177136  3392 net.cpp:380] fc8 -> fc8
I0616 09:01:38.177886  3392 net.cpp:122] Setting up fc8
I0616 09:01:38.177902  3392 net.cpp:129] Top shape: 64 2 (128)
I0616 09:01:38.177908  3392 net.cpp:137] Memory required for data: 439049728
I0616 09:01:38.177920  3392 layer_factory.hpp:77] Creating layer loss
I0616 09:01:38.177939  3392 net.cpp:84] Creating Layer loss
I0616 09:01:38.177947  3392 net.cpp:406] loss <- fc8
I0616 09:01:38.177954  3392 net.cpp:406] loss <- label
I0616 09:01:38.177968  3392 net.cpp:380] loss -> loss
I0616 09:01:38.177989  3392 layer_factory.hpp:77] Creating layer loss
…
I0616 09:01:38.178711  3392 net.cpp:294] The NetState phase (1) differed from the phase (0) specified by a rule in layer data
I0616 09:01:38.178913  3392 net.cpp:51] Initializing net from parameters: 
name: "CaffeNet"
state {
  phase: TEST
}
layer {
  name: "data"
  type: "Data"
  top: "data"
  top: "label"
  include {
    phase: TEST
  }
  transform_param {
    mirror: false
    crop_size: 227
    mean_file: "/home/jondan/Documents/Ohjelmat/haalarimerkkiGo/mean.binaryproto"
  }
  data_param {
    source: "/home/jondan/Documents/Ohjelmat/haalarimerkkiGo/validation_lmdb"
    batch_size: 50
    backend: LMDB
  }
}
layer {
  name: "conv1"
  type: "Convolution"
  bottom: "data"
  top: "conv1"
  param {
    lr_mult: 1
    decay_mult: 1
  }
  param {
    lr_mult: 2
    decay_mult: 0
  }
  convolution_param {
    num_output: 96
    kernel_size: 11
    stride: 4
    weight_filler {
      type: "gaussian"
      std: 0.01
    }
    bias_filler {
      type: "constant"
      value: 0
    }
  }
}
layer {
  name: "relu1"
  type: "ReLU"
  bottom: "conv1"
  top: "conv1"
}
layer {
  name: "pool1"
  type: "Pooling"
  bottom: "conv1"
  top: "pool1"
  pooling_param {
    pool: MAX
    kernel_size: 3
    stride: 2
  }
}
layer {
  name: "norm1"
  type: "LRN"
  bottom: "pool1"
  top: "norm1"
  lrn_param {
    local_size: 5
    alpha: 0.0001
    beta: 0.75
  }
}
layer {
  name: "conv2"
  type: "Convolution"
  bottom: "norm1"
  top: "conv2"
  param {
    lr_mult: 1
    decay_mult: 1
  }
  param {
    lr_mult: 2
    decay_mult: 0
  }
  convolution_param {
    num_output: 256
    pad: 2
    kernel_size: 5
    group: 2
    weight_filler {
      type: "gaussian"
      std: 0.01
    }
    bias_filler {
      type: "constant"
      value: 1
    }
  }
}
layer {
  name: "relu2"
  type: "ReLU"
  bottom: "conv2"
  top: "conv2"
}
layer {
  name: "pool2"
  type: "Pooling"
  bottom: "conv2"
  top: "pool2"
  pooling_param {
    pool: MAX
    kernel_size: 3
    stride: 2
  }
}
layer {
  name: "norm2"
  type: "LRN"
  bottom: "pool2"
  top: "norm2"
  lrn_param {
    local_size: 5
    alpha: 0.0001
    beta: 0.75
  }
}
layer {
  name: "conv3"
  type: "Convolution"
  bottom: "norm2"
  top: "conv3"
  param {
    lr_mult: 1
    decay_mult: 1
  }
  param {
    lr_mult: 2
    decay_mult: 0
  }
  convolution_param {
    num_output: 384
    pad: 1
    kernel_size: 3
    weight_filler {
      type: "gaussian"
      std: 0.01
    }
    bias_filler {
      type: "constant"
      value: 0
    }
  }
}
layer {
  name: "relu3"
  type: "ReLU"
  bottom: "conv3"
  top: "conv3"
}
layer {
  name: "conv4"
  type: "Convolution"
  bottom: "conv3"
  top: "conv4"
  param {
    lr_mult: 1
    decay_mult: 1
  }
  param {
    lr_mult: 2
    decay_mult: 0
  }
  convolution_param {
    num_output: 384
    pad: 1
    kernel_size: 3
    group: 2
    weight_filler {
      type: "gaussian"
      std: 0.01
    }
    bias_filler {
      type: "constant"
      value: 1
    }
  }
}
layer {
  name: "relu4"
  type: "ReLU"
  bottom: "conv4"
  top: "conv4"
}
layer {
  name: "conv5"
  type: "Convolution"
  bottom: "conv4"
  top: "conv5"
  param {
    lr_mult: 1
    decay_mult: 1
  }
  param {
    lr_mult: 2
    decay_mult: 0
  }
  convolution_param {
    num_output: 256
    pad: 1
    kernel_size: 3
    group: 2
    weight_filler {
      type: "gaussian"
      std: 0.01
    }
    bias_filler {
      type: "constant"
      value: 1
    }
  }
}
layer {
  name: "relu5"
  type: "ReLU"
  bottom: "conv5"
  top: "conv5"
}
layer {
  name: "pool5"
  type: "Pooling"
  bottom: "conv5"
  top: "pool5"
  pooling_param {
    pool: MAX
    kernel_size: 3
    stride: 2
  }
}
layer {
  name: "fc6"
  type: "InnerProduct"
  bottom: "pool5"
  top: "fc6"
  param {
    lr_mult: 1
    decay_mult: 1
  }
  param {
    lr_mult: 2
    decay_mult: 0
  }
  inner_product_param {
    num_output: 4096
    weight_filler {
      type: "gaussian"
      std: 0.005
    }
    bias_filler {
      type: "constant"
      value: 1
    }
  }
}
layer {
  name: "relu6"
  type: "ReLU"
  bottom: "fc6"
  top: "fc6"
}
layer {
  name: "drop6"
  type: "Dropout"
  bottom: "fc6"
  top: "fc6"
  dropout_param {
    dropout_ratio: 0.5
  }
}
layer {
  name: "fc7"
  type: "InnerProduct"
  bottom: "fc6"
  top: "fc7"
  param {
    lr_mult: 1
    decay_mult: 1
  }
  param {
    lr_mult: 2
    decay_mult: 0
  }
  inner_product_param {
    num_output: 4096
    weight_filler {
      type: "gaussian"
      std: 0.005
    }
    bias_filler {
      type: "constant"
      value: 1
    }
  }
}
layer {
  name: "relu7"
  type: "ReLU"
  bottom: "fc7"
  top: "fc7"
}
layer {
  name: "drop7"
  type: "Dropout"
  bottom: "fc7"
  top: "fc7"
  dropout_param {
    dropout_ratio: 0.5
  }
}
layer {
  name: "fc8"
  type: "InnerProduct"
  bottom: "fc7"
  top: "fc8"
  param {
    lr_mult: 1
    decay_mult: 1
  }
  param {
    lr_mult: 2
    decay_mult: 0
  }
  inner_product_param {
    num_output: 2
    weight_filler {
      type: "gaussian"
      std: 0.01
    }
    bias_filler {
      type: "constant"
      value: 0
    }
  }
}
layer {
  name: "accuracy"
  type: "Accuracy"
  bottom: "fc8"
  bottom: "label"
  top: "accuracy"
  include {
    phase: TEST
  }
}
layer {
  name: "loss"
  type: "SoftmaxWithLoss"
  bottom: "fc8"
  bottom: "label"
  top: "loss"
}
I0616 09:01:38.179076  3392 layer_factory.hpp:77] Creating layer data
I0616 09:01:38.179154  3392 db_lmdb.cpp:35] Opened lmdb /home/jondan/Documents/Ohjelmat/haalarimerkkiGo/validation_lmdb
I0616 09:01:38.179175  3392 net.cpp:84] Creating Layer data
I0616 09:01:38.179186  3392 net.cpp:380] data -> data
I0616 09:01:38.179199  3392 net.cpp:380] data -> label
I0616 09:01:38.179210  3392 data_transformer.cpp:25] Loading mean file from: /home/jondan/Documents/Ohjelmat/haalarimerkkiGo/mean.binaryproto
I0616 09:01:38.181264  3392 data_layer.cpp:45] output data size: 50,3,227,227
I0616 09:01:38.307106  3392 net.cpp:122] Setting up data
I0616 09:01:38.307144  3392 net.cpp:129] Top shape: 50 3 227 227 (7729350)
I0616 09:01:38.307157  3392 net.cpp:129] Top shape: 50 (50)
I0616 09:01:38.307163  3392 net.cpp:137] Memory required for data: 30917600
I0616 09:01:38.307174  3392 layer_factory.hpp:77] Creating layer label_data_1_split
I0616 09:01:38.307199  3392 net.cpp:84] Creating Layer label_data_1_split
I0616 09:01:38.307209  3392 net.cpp:406] label_data_1_split <- label
I0616 09:01:38.307221  3392 net.cpp:380] label_data_1_split -> label_data_1_split_0
I0616 09:01:38.307240  3392 net.cpp:380] label_data_1_split -> label_data_1_split_1
I0616 09:01:38.307306  3392 net.cpp:122] Setting up label_data_1_split
I0616 09:01:38.307317  3392 net.cpp:129] Top shape: 50 (50)
I0616 09:01:38.307324  3392 net.cpp:129] Top shape: 50 (50)
I0616 09:01:38.307329  3392 net.cpp:137] Memory required for data: 30918000
I0616 09:01:38.307335  3392 layer_factory.hpp:77] Creating layer conv1
I0616 09:01:38.307355  3392 net.cpp:84] Creating Layer conv1
I0616 09:01:38.307363  3392 net.cpp:406] conv1 <- data
I0616 09:01:38.307374  3392 net.cpp:380] conv1 -> conv1
I0616 09:01:38.308040  3392 net.cpp:122] Setting up conv1
I0616 09:01:38.308056  3392 net.cpp:129] Top shape: 50 96 55 55 (14520000)
I0616 09:01:38.308063  3392 net.cpp:137] Memory required for data: 88998000
I0616 09:01:38.308080  3392 layer_factory.hpp:77] Creating layer relu1
I0616 09:01:38.308091  3392 net.cpp:84] Creating Layer relu1
I0616 09:01:38.308099  3392 net.cpp:406] relu1 <- conv1
I0616 09:01:38.308109  3392 net.cpp:367] relu1 -> conv1 (in-place)
I0616 09:01:38.308123  3392 net.cpp:122] Setting up relu1
I0616 09:01:38.308135  3392 net.cpp:129] Top shape: 50 96 55 55 (14520000)
I0616 09:01:38.308141  3392 net.cpp:137] Memory required for data: 147078000
I0616 09:01:38.308148  3392 layer_factory.hpp:77] Creating layer pool1
I0616 09:01:38.308161  3392 net.cpp:84] Creating Layer pool1
I0616 09:01:38.308167  3392 net.cpp:406] pool1 <- conv1
I0616 09:01:38.308176  3392 net.cpp:380] pool1 -> pool1
I0616 09:01:38.308224  3392 net.cpp:122] Setting up pool1
I0616 09:01:38.308235  3392 net.cpp:129] Top shape: 50 96 27 27 (3499200)
I0616 09:01:38.308243  3392 net.cpp:137] Memory required for data: 161074800
I0616 09:01:38.308250  3392 layer_factory.hpp:77] Creating layer norm1
I0616 09:01:38.308261  3392 net.cpp:84] Creating Layer norm1
I0616 09:01:38.308269  3392 net.cpp:406] norm1 <- pool1
I0616 09:01:38.308277  3392 net.cpp:380] norm1 -> norm1
I0616 09:01:38.308320  3392 net.cpp:122] Setting up norm1
I0616 09:01:38.308328  3392 net.cpp:129] Top shape: 50 96 27 27 (3499200)
I0616 09:01:38.308334  3392 net.cpp:137] Memory required for data: 175071600
I0616 09:01:38.308341  3392 layer_factory.hpp:77] Creating layer conv2
I0616 09:01:38.308357  3392 net.cpp:84] Creating Layer conv2
I0616 09:01:38.308363  3392 net.cpp:406] conv2 <- norm1
I0616 09:01:38.308373  3392 net.cpp:380] conv2 -> conv2
I0616 09:01:38.333380  3392 net.cpp:122] Setting up conv2
I0616 09:01:38.333417  3392 net.cpp:129] Top shape: 50 256 27 27 (9331200)
I0616 09:01:38.333426  3392 net.cpp:137] Memory required for data: 212396400
I0616 09:01:38.333447  3392 layer_factory.hpp:77] Creating layer relu2
I0616 09:01:38.333480  3392 net.cpp:84] Creating Layer relu2
I0616 09:01:38.333492  3392 net.cpp:406] relu2 <- conv2
I0616 09:01:38.333504  3392 net.cpp:367] relu2 -> conv2 (in-place)
I0616 09:01:38.333520  3392 net.cpp:122] Setting up relu2
I0616 09:01:38.333533  3392 net.cpp:129] Top shape: 50 256 27 27 (9331200)
I0616 09:01:38.333539  3392 net.cpp:137] Memory required for data: 249721200
I0616 09:01:38.333546  3392 layer_factory.hpp:77] Creating layer pool2
I0616 09:01:38.333560  3392 net.cpp:84] Creating Layer pool2
I0616 09:01:38.333567  3392 net.cpp:406] pool2 <- conv2
I0616 09:01:38.333577  3392 net.cpp:380] pool2 -> pool2
I0616 09:01:38.333647  3392 net.cpp:122] Setting up pool2
I0616 09:01:38.333658  3392 net.cpp:129] Top shape: 50 256 13 13 (2163200)
I0616 09:01:38.333664  3392 net.cpp:137] Memory required for data: 258374000
I0616 09:01:38.333670  3392 layer_factory.hpp:77] Creating layer norm2
I0616 09:01:38.333683  3392 net.cpp:84] Creating Layer norm2
I0616 09:01:38.333691  3392 net.cpp:406] norm2 <- pool2
I0616 09:01:38.333701  3392 net.cpp:380] norm2 -> norm2
I0616 09:01:38.333762  3392 net.cpp:122] Setting up norm2
I0616 09:01:38.333796  3392 net.cpp:129] Top shape: 50 256 13 13 (2163200)
I0616 09:01:38.333802  3392 net.cpp:137] Memory required for data: 267026800
I0616 09:01:38.333808  3392 layer_factory.hpp:77] Creating layer conv3
I0616 09:01:38.333825  3392 net.cpp:84] Creating Layer conv3
I0616 09:01:38.333834  3392 net.cpp:406] conv3 <- norm2
I0616 09:01:38.333847  3392 net.cpp:380] conv3 -> conv3
I0616 09:01:38.346029  3392 net.cpp:122] Setting up conv3
I0616 09:01:38.346065  3392 net.cpp:129] Top shape: 50 384 13 13 (3244800)
I0616 09:01:38.346072  3392 net.cpp:137] Memory required for data: 280006000
I0616 09:01:38.346093  3392 layer_factory.hpp:77] Creating layer relu3
I0616 09:01:38.346112  3392 net.cpp:84] Creating Layer relu3
I0616 09:01:38.346123  3392 net.cpp:406] relu3 <- conv3
I0616 09:01:38.346134  3392 net.cpp:367] relu3 -> conv3 (in-place)
I0616 09:01:38.346150  3392 net.cpp:122] Setting up relu3
I0616 09:01:38.346161  3392 net.cpp:129] Top shape: 50 384 13 13 (3244800)
I0616 09:01:38.346168  3392 net.cpp:137] Memory required for data: 292985200
I0616 09:01:38.346174  3392 layer_factory.hpp:77] Creating layer conv4
I0616 09:01:38.346191  3392 net.cpp:84] Creating Layer conv4
I0616 09:01:38.346199  3392 net.cpp:406] conv4 <- conv3
I0616 09:01:38.346210  3392 net.cpp:380] conv4 -> conv4
I0616 09:01:38.389328  3392 net.cpp:122] Setting up conv4
I0616 09:01:38.389370  3392 net.cpp:129] Top shape: 50 384 13 13 (3244800)
I0616 09:01:38.389379  3392 net.cpp:137] Memory required for data: 305964400
I0616 09:01:38.389397  3392 layer_factory.hpp:77] Creating layer relu4
I0616 09:01:38.389420  3392 net.cpp:84] Creating Layer relu4
I0616 09:01:38.389430  3392 net.cpp:406] relu4 <- conv4
I0616 09:01:38.389443  3392 net.cpp:367] relu4 -> conv4 (in-place)
I0616 09:01:38.389461  3392 net.cpp:122] Setting up relu4
I0616 09:01:38.389473  3392 net.cpp:129] Top shape: 50 384 13 13 (3244800)
I0616 09:01:38.389484  3392 net.cpp:137] Memory required for data: 318943600
I0616 09:01:38.389493  3392 layer_factory.hpp:77] Creating layer conv5
I0616 09:01:38.389510  3392 net.cpp:84] Creating Layer conv5
I0616 09:01:38.389518  3392 net.cpp:406] conv5 <- conv4
I0616 09:01:38.389529  3392 net.cpp:380] conv5 -> conv5
I0616 09:01:38.397359  3392 net.cpp:122] Setting up conv5
I0616 09:01:38.397399  3392 net.cpp:129] Top shape: 50 256 13 13 (2163200)
I0616 09:01:38.397408  3392 net.cpp:137] Memory required for data: 327596400
I0616 09:01:38.397430  3392 layer_factory.hpp:77] Creating layer relu5
I0616 09:01:38.397449  3392 net.cpp:84] Creating Layer relu5
I0616 09:01:38.397469  3392 net.cpp:406] relu5 <- conv5
I0616 09:01:38.397481  3392 net.cpp:367] relu5 -> conv5 (in-place)
I0616 09:01:38.397496  3392 net.cpp:122] Setting up relu5
I0616 09:01:38.397506  3392 net.cpp:129] Top shape: 50 256 13 13 (2163200)
I0616 09:01:38.397512  3392 net.cpp:137] Memory required for data: 336249200
I0616 09:01:38.397543  3392 layer_factory.hpp:77] Creating layer pool5
I0616 09:01:38.397562  3392 net.cpp:84] Creating Layer pool5
I0616 09:01:38.397569  3392 net.cpp:406] pool5 <- conv5
I0616 09:01:38.397580  3392 net.cpp:380] pool5 -> pool5
I0616 09:01:38.397668  3392 net.cpp:122] Setting up pool5
I0616 09:01:38.397683  3392 net.cpp:129] Top shape: 50 256 6 6 (460800)
I0616 09:01:38.397691  3392 net.cpp:137] Memory required for data: 338092400
I0616 09:01:38.397696  3392 layer_factory.hpp:77] Creating layer fc6
I0616 09:01:38.397711  3392 net.cpp:84] Creating Layer fc6
I0616 09:01:38.397718  3392 net.cpp:406] fc6 <- pool5
I0616 09:01:38.397729  3392 net.cpp:380] fc6 -> fc6
I0616 09:01:38.824631  3392 net.cpp:122] Setting up fc6
I0616 09:01:38.824667  3392 net.cpp:129] Top shape: 50 4096 (204800)
I0616 09:01:38.824686  3392 net.cpp:137] Memory required for data: 338911600
I0616 09:01:38.824702  3392 layer_factory.hpp:77] Creating layer relu6
I0616 09:01:38.824719  3392 net.cpp:84] Creating Layer relu6
I0616 09:01:38.824728  3392 net.cpp:406] relu6 <- fc6
I0616 09:01:38.824739  3392 net.cpp:367] relu6 -> fc6 (in-place)
I0616 09:01:38.824755  3392 net.cpp:122] Setting up relu6
I0616 09:01:38.824764  3392 net.cpp:129] Top shape: 50 4096 (204800)
I0616 09:01:38.824771  3392 net.cpp:137] Memory required for data: 339730800
I0616 09:01:38.824777  3392 layer_factory.hpp:77] Creating layer drop6
I0616 09:01:38.824787  3392 net.cpp:84] Creating Layer drop6
I0616 09:01:38.824793  3392 net.cpp:406] drop6 <- fc6
I0616 09:01:38.824801  3392 net.cpp:367] drop6 -> fc6 (in-place)
I0616 09:01:38.824853  3392 net.cpp:122] Setting up drop6
I0616 09:01:38.824875  3392 net.cpp:129] Top shape: 50 4096 (204800)
I0616 09:01:38.824880  3392 net.cpp:137] Memory required for data: 340550000
I0616 09:01:38.824898  3392 layer_factory.hpp:77] Creating layer fc7
I0616 09:01:38.824911  3392 net.cpp:84] Creating Layer fc7
I0616 09:01:38.824919  3392 net.cpp:406] fc7 <- fc6
I0616 09:01:38.824930  3392 net.cpp:380] fc7 -> fc7
I0616 09:01:39.008862  3392 net.cpp:122] Setting up fc7
I0616 09:01:39.008903  3392 net.cpp:129] Top shape: 50 4096 (204800)
I0616 09:01:39.008909  3392 net.cpp:137] Memory required for data: 341369200
I0616 09:01:39.008937  3392 layer_factory.hpp:77] Creating layer relu7
I0616 09:01:39.008954  3392 net.cpp:84] Creating Layer relu7
I0616 09:01:39.008965  3392 net.cpp:406] relu7 <- fc7
I0616 09:01:39.008980  3392 net.cpp:367] relu7 -> fc7 (in-place)
I0616 09:01:39.008997  3392 net.cpp:122] Setting up relu7
I0616 09:01:39.009008  3392 net.cpp:129] Top shape: 50 4096 (204800)
I0616 09:01:39.009014  3392 net.cpp:137] Memory required for data: 342188400
I0616 09:01:39.009022  3392 layer_factory.hpp:77] Creating layer drop7
I0616 09:01:39.009033  3392 net.cpp:84] Creating Layer drop7
I0616 09:01:39.009047  3392 net.cpp:406] drop7 <- fc7
I0616 09:01:39.009058  3392 net.cpp:367] drop7 -> fc7 (in-place)
I0616 09:01:39.009104  3392 net.cpp:122] Setting up drop7
I0616 09:01:39.009115  3392 net.cpp:129] Top shape: 50 4096 (204800)
I0616 09:01:39.009121  3392 net.cpp:137] Memory required for data: 343007600
I0616 09:01:39.009127  3392 layer_factory.hpp:77] Creating layer fc8
I0616 09:01:39.009142  3392 net.cpp:84] Creating Layer fc8
I0616 09:01:39.009150  3392 net.cpp:406] fc8 <- fc7
I0616 09:01:39.009160  3392 net.cpp:380] fc8 -> fc8
I0616 09:01:39.009384  3392 net.cpp:122] Setting up fc8
I0616 09:01:39.009398  3392 net.cpp:129] Top shape: 50 2 (100)
I0616 09:01:39.009407  3392 net.cpp:137] Memory required for data: 343008000
I0616 09:01:39.009418  3392 layer_factory.hpp:77] Creating layer fc8_fc8_0_split
I0616 09:01:39.009429  3392 net.cpp:84] Creating Layer fc8_fc8_0_split
I0616 09:01:39.009438  3392 net.cpp:406] fc8_fc8_0_split <- fc8
I0616 09:01:39.009446  3392 net.cpp:380] fc8_fc8_0_split -> fc8_fc8_0_split_0
I0616 09:01:39.009460  3392 net.cpp:380] fc8_fc8_0_split -> fc8_fc8_0_split_1
I0616 09:01:39.009510  3392 net.cpp:122] Setting up fc8_fc8_0_split
I0616 09:01:39.009521  3392 net.cpp:129] Top shape: 50 2 (100)
I0616 09:01:39.009528  3392 net.cpp:129] Top shape: 50 2 (100)
I0616 09:01:39.009552  3392 net.cpp:137] Memory required for data: 343008800
I0616 09:01:39.009558  3392 layer_factory.hpp:77] Creating layer accuracy
I0616 09:01:39.009575  3392 net.cpp:84] Creating Layer accuracy
I0616 09:01:39.009582  3392 net.cpp:406] accuracy <- fc8_fc8_0_split_0
I0616 09:01:39.009590  3392 net.cpp:406] accuracy <- label_data_1_split_0
I0616 09:01:39.009606  3392 net.cpp:380] accuracy -> accuracy
…
